MPNN_attentivefp_PCBA_pre_trained.pth (torch, 923236 bytes, 19 tensors)

gnn.project_node_feats.0.weight f4 [64, 39]
-0.05186797 -0.22861399 0.30379555 -0.029884001 0.027012736 0.0050910134 0.11528099 0.35736904
-0.5255119 -0.0014854477 -0.048572082 -0.012432167 2.11539e-40 -0.0018187832 -1.107871e-39 -0.17355189
-0.10148111 0.117756635 0.28806847 -0.3242867 0.06886509 1.438194e-07 -0.027926322 -0.028206734
0.31089696 -0.42574975 0.30495623 -0.018456532 -0.067529 -0.0061330986 0.3907808 0.21401283
-0.07358142 -0.07358843 0.12800188 3.204e-41 -0.15904915 -0.1820176 -0.19843104 8.38983e-40
-0.048224658 -0.06864566 0.13512887 -0.013020553 -5.37181e-40 8.84797e-40 0.03528742 -0.029655546
3.244319e-34 -2.6814775e-30 0.031295955 1.410464e-39 0.0014125428 1.67e-41 -2.6725913e-06 -8.0009296e-33
0.2106935 -0.08026069 -0.0931317 3.33386e-40 -1.651091e-39 0.01826225 -1.6707928e-06 -0.003604315
0.09240356 -0.070936516 -4.4473955e-17 -1.300722e-39 2.9221317e-07 0.13239019 -0.17308621 0.19152144
0.06881596 -0.03940209 2.46913e-39 -0.03383132 -0.007713909 -0.0041365414 8.52624e-40 1.2909886e-21
2.9608152e-28 2.16823e-40 2.5492e-41 -7.682e-42 -1.404017e-39 2.69224e-40 -2.10321e-40 2.364894e-39
-2.7911e-41 9.01467e-40 -1.160134e-39 -1.13932e-39 1.358897e-39 5.9252e-40 -3.84616e-40 4.13921e-40
1.24460895e-17 -1.6745335e-25 -2.06969e-40 -9.41049e-40 -4.77825e-40 6.8641e-41 7.3235e-41 -5.4914644e-14
4.679617e-33 -3.0546e-41 1.062909e-39 -9.12719e-40 -7.9642436e-20 -4.0643325e-18 -4.0515653e-30 -2.3184e-41
-5.84192e-40 -4.81399e-40 5.43896e-40 -6.26675e-40 7.229e-40 -1.30953e-39 -0.053261496 -0.021365903
-0.0038820116 -0.00033213943 -1.722606e-39 -4.57946e-40 0.0017725957 -0.00019349025 1.53007e-39 5.06061e-40
8.766169e-05 3.56e-43 -1.833913e-39 -7.39353e-40 -5.82112e-40 -9.42822e-40 0.0012156953 -0.0433417
-0.049800497 0.00038733167 -1.788491e-39 0.00012044674 7.01162e-40 -0.0002705239 -0.0623193 0.0037219112
9.8276e-40 -5.54122e-40 1.28446e-40 -0.05831422 -0.05594333 -0.043059558 0.004363457 0.00090709276
1.001389e-39 0.000984927 -0.00014323811 0.00031685518 -8.647566e-05 -0.12972887 -0.07433782 0.32426065
-0.046802837 1.6988763e-07 -0.00024070988 0.10872564 -0.13211338 2.0186353e-07 -0.024410406 0.036824632
1.280968e-39 0.0013919867 3.77933e-40 -0.053793833 0.00036353685 0.15010144 0.035179015 -0.09910881
-0.014634546 1.29743014e-17 0.007586651 0.0005850935 -0.02366415 0.094811 -0.008427128 0.0001025638
-0.058258478 -6.7017965e-07 0.046522032 -0.09904626 0.18105301 -0.03353524 0.016509248 1.069597e-39
-0.048811056 -0.0033192954 -0.0039096186 -1.712036e-39 6.191449e-07 -6.52285e-13 -6.3858208e-15 2.36407e-40
-9.1611e-40 5.1377e-41 3.25516e-40 -6.35785e-40 1.101094e-39 -6.58351e-40 1.32899e-40 -2.431558e-39
-1.622907e-39 -1.573479e-39 -9.2328e-40 -1.124493e-39 -2.514146e-12 7.2324413e-09 -1.5328945e-06 4.82561e-40
4.65862e-40 -1.3416e-41 -1.293876e-39 4.82096e-40 -0.00010176725 -6.8561323e-10 1.492042e-39 -1.463e-42
2.3673e-40 2.8033104e-05 -2.7672842e-05 -3.5182932e-10 -2.872194e-13 -4.1173e-41 -1.89132e-39 7.431e-42
-7.2987e-40 4.16097e-40 -4.7291e-41 -0.00023360636 2.207542e-22 1.4050355e-25 7.0405956e-28 6.14867e-40
-1.5754986e-28 5.1342078e-26 2.0209948e-26 -1.447855e-39 -6.69906e-40 1.2503617e-26 -1.867075e-39 1.4645931e-31
-8.97459e-40 -6.70943e-40 1.076504e-39 1.664484e-25 -1.4163085e-06 -1.636891e-05 -4.777959e-26 -5.926e-42
00000000: 8273 54bd c919 6abe 178b 9b3e 4bcf f4bc
00000010: d049 dd3c 84d2 a63b 7118 ec3d 13f9 b63e
00000020: f387 06bf 5bb3 c2ba 85f3 46bd 4ab0 4bbc
00000030: af4d 0200 3d64 eeba 4b10 0c80 96b7 31be
00000040: 54d5 cfbd 642a f13d b67d 933e e808 a6be
00000050: 2409 8d3d c76c 1a34 bec5 e4bc cf11 e7bc
00000060: e32d 9f3e dffb d9be 3923 9c3e 2732 97bc
00000070: a54c 8abd 29f8 c8bb 6c14 c83e 2e26 5b3e
00000080: dbb1 96bd 88b5 96bd ed12 033e 5159 0000
00000090: c8dd 22be d262 3abe 8231 4bbe be22 0900
000000a0: 3887 45bd 1996 8cbd 395f 0a3e 2854 55bc
000000b0: 71d9 0580 74a2 0900 8b89 103d 30f0 f2bc
000000c0: 3a9f d707 1c8c 598e 3030 003d cd5b 0f00
000000d0: 1225 b93a 8e2e 0000 c55a 33b6 3d2c 268a
000000e0: 09c0 573e b75f a4bd d5bb bebd 58a1 0300
000000f0: 92fa 1180 b79a 953c 0140 e0b5 5f36 6cbb
00000100: 143e bd3d 2a47 91bd 9419 4da4 e229 0e80
00000110: 79e1 9c34 4b91 073e 833d 31be 321e 443e
00000120: 62ef 8c3d 1664 21bd eee2 1a00 b692 0abd
00000130: f5c4 fcbb d38b 87bb c548 0900 b416 c31c
00000140: f9a9 bb11 6a5c 0200 1047 0000 6a15 0080
00000150: d449 0f80 7dee 0200 4a4a 0280 5dc0 1900
00000160: ce4d 0080 ecd0 0900 fba1 0c80 f667 0c80
00000170: 0dcc 0e00 b473 0600 2730 0480 d881 0400
00000180: ff96 6523 164c 4f96 f240 0280 433f 0a80
00000190: fb33 0580 58bf 0000 26cc 0000 4650 77a9
000001a0: 3962 c209 2655 0080 f592 0b00 4af0 0980
000001b0: e60c bc9f 89f2 95a2 dc59 a48e a140 0080
000001c0: 7d5c 0680 f23d 0580 29ec 0500 ead2 0680
000001d0: 27df 0700 7042 0e80 ba28 5abd 8c07 afbc
000001e0: 5969 7ebb 0023 aeb9 edc1 1280 91fc 0480
000001f0: 7156 e83a a5e3 4ab9 36a9 1000 b182 0500
00000200: 03d7 b738 fe00 0000 34f8 1380 040d 0880
00000210: b156 0680 3444 0a80 f757 9f3a 1187 31bd
00000220: 9bfb 4bbd c712 cb39 9679 1380 5a98 fc38
00000230: 8ea2 0700 1ad5 8db9 8642 7fbd 4feb 733b
00000240: 89b3 0a00 ab08 0680 0e66 0100 e4da 6ebd
00000250: d524 65bd 385f 30bd 55fb 8e3b f7c9 6d3a
00000260: 77e7 0a00 ab18 813a 3032 16b9 951f a639
00000270: 445a b5b8 a5d7 04be 6d3e 98bd 7e05 a63e
00000280: 55b4 3fbd 5b6a 3634 1167 7cb9 8cab de3d
00000290: bb48 07be d3bf 5834 55f8 c7bc 6dd5 163d
000002a0: d1f2 0d00 5373 b63a 861d 0400 ec56 5cbd
000002b0: 1799 be39 31b4 193e df17 103d 8ff9 cabd
000002c0: bcc5 6fbc 6855 6f23 7199 f83b f660 193a
000002d0: 52db c1bc 452c c23d f011 0abc 8517 d738
000002e0: 71a0 6ebd 65e6 33b5 e38d 3e3d c4d8 cabd
000002f0: f665 393e 3f5c 09bd 673e 873c 9aa5 0b00
00000300: 1aee 47bd 8988 59bb 421c 80bb 76a4 1280
00000310: 5033 2635 169a 37ab cd12 e6a7 0293 0200
00000320: bef9 0980 388f 0000 688b 0300 4fec 0680
00000330: 67fd 0b00 372b 0780 7872 0100 327a 1a80
00000340: 01ac 1180 3822 1180 bb0d 0a80 a13e 0c80
00000350: d4ea 30ac 3a81 f831 dbbd cdb5 2f41 0500
00000360: a212 0500 6625 0080 cd16 0e80 e33f 0500
00000370: e06b d5b8 be75 3cb0 353f 1000 1404 0080
00000380: e893 0200 a228 eb37 fa22 e8b7 936b c1af
00000390: aeb0 a1aa c672 0080 3b98 1480 b714 0000
000003a0: 95f2 0780 e987 0400 d483 0080 3bf4 74b9
000003b0: 0f70 851b 5aef 2d16 1920 5f12 00b2 0600
000003c0: dab7 4791 d13b 7e15 4e26 c814 08c4 0f80
000003d0: 6d4b 0780 dfa8 7714 a554 1480 741d 3e0c
000003e0: c0c5 0980 514e 0780 dbb8 0b00 9b0d 4e16
000003f0: fd17 beb5 f74f 89b7 d397 6c95 8510 0080

gnn.project_node_feats.0.bias f4 [64]
0.044719145 0.035671122 -6.4024616e-13 -0.06097243 0.07129639 -0.0002087032 -0.0011774051 0.054322552
-0.03704451 -3.1407632e-18 -1.6406545e-19 -2.7873773e-10 0.06138683 0.050978057 0.09353926 -0.002127788
-0.008217093 -2.089063e-15 -7.633865e-06 -3.3756605e-13 1.4368242 -0.032200012 -7.053802e-05 -0.0010442876
0.06524261 -8.3005064e-10 -3.1733642e-19 -0.05640578 -0.004862952 0.015391978 -3.094456e-05 -0.04390223
-2.2248488e-17 -8.9240314e-18 -4.1295966e-16 -0.018092168 -3.4910683e-14 0.052840225 0.096581936 0.07584921
0.06914665 0.021045927 0.07087946 -2.5419392e-06 0.04065294 0.061111115 0.012577956 0.4235389
-3.7168847e-05 0.05825613 0.103367135 -0.00091297145 -2.1158268e-22 -0.056216978 0.054540798 0.069023736
0.043667514 0.0038946671 0.07898863 0.013627694 0.057302494 -0.00019022831 -0.048520494 -0.045756258
00000000: 6c2b 373d e21b 123d 9936 34ab 3abe 79bd
00000010: d703 923d 57d7 5ab9 2953 9aba 5381 5e3d
00000020: fcbb 17bd 57bf 67a2 bdb1 41a0 d93c 99af
00000030: c270 7b3d 5ece 503d 8391 bf3d 5c72 0bbb
00000040: fca0 06bc 6988 16a7 3313 00b7 6508 beaa
00000050: dbe9 b73f 29e4 03bd d0ed 93b8 7ae0 88ba
00000060: eb9d 853d 9f29 64b0 8652 bba0 bf09 67bd
00000070: 6659 9fbb a32e 7c3c 78ca 01b8 d3d2 33bd
00000080: c234 cda3 8c9e 24a3 170e eea5 0736 94bc
00000090: 4739 1da9 fe6e 583d c0cc c53d d556 9b3d
000000a0: c29c 8d3d 8268 ac3c 4029 913d 2f96 2ab6
000000b0: b283 263d a64f 7a3d c513 4e3c 17da d83e
000000c0: bfe5 1bb8 fb9d 6e3d 26b2 d33d 7a54 6fba
000000d0: abc9 7f9b c643 66bd 2c66 5f3d 515c 8d3d
000000e0: b5dc 323d ac3d 7f3b cac4 a13d b146 5f3c
000000f0: 05b6 6a3d 0678 47b9 6dbd 46bd ea6a 3bbd

gnn.gnn_layer.bias f4 [64]
-0.00010098099 -0.0046598013 -0.06208465 -0.0017745821 0.0014135047 -0.0055285296 -0.0012510109 -0.00044315626
-0.04416503 -9.510785e-07 -0.014294491 -0.022642924 -3.9074854e-05 -0.001366485 -7.3034327e-23 -1.3604855e-08
0.0003263162 -0.0017323028 0.07264229 -4.880538e-05 -4.553304e-05 -0.00044112833 -0.026550567 4.63984e-40
-0.016429057 -0.0058380566 -4.48207e-40 -0.0012964379 -2.793634e-06 -0.0004502139 -0.0055805463 -5.38174e-40
-0.016324567 6.1326e-40 -4.917298e-06 -0.006817536 7.841426e-05 -7.750275e-06 -0.021207599 -0.00035951295
-0.0019465918 -0.00064634025 -0.043919627 -1.4093202e-30 0.0003060441 -0.0010591319 0.009863231 -0.0008118183
-0.0020132791 -0.0007104733 -0.08665895 0.09469447 -0.00546496 -0.008901989 -0.0070433295 -9.3844976e-14
-0.0050798994 -0.014670883 -0.0018802551 -2.1444512e-05 -0.00013413135 -9.682504e-06 -0.027297862 -4.3869626e-05
00000000: c2c5 d3b8 3fb1 98bb 794c 7ebd 1899 e8ba
00000010: 5945 b93a ab28 b5bb f6f8 a3ba 6d57 e8b9
00000020: 64e6 34bd 9e4d 7fb5 7133 6abc a77d b9bc
00000030: 4ee4 23b8 a11b b3ba 0f96 b09a c9ba 69b2
00000040: 6b15 ab39 700e e3ba 7bc5 943d 61b4 4cb8
00000050: bbfa 3eb8 3e47 e7b9 9380 d9bc 660d 0500
00000060: 3b96 86bc 2b4d bfbb 6be1 0480 3ded a9ba
00000070: 447a 3bb6 b00a ecb9 04dd b6bb 36dc 0580
00000080: 19bb 85bc 85ad 0600 45ff a4b6 a365 dfbb
00000090: 5672 a438 2d07 02b7 8fbb adbc 037d bcb9
000000a0: c824 ffba 296f 29ba 11e5 33bd dfac e48d
000000b0: 8b74 a039 92d2 8aba 6499 213c 34d0 54ba
000000c0: 38f1 03bb 0e3f 3aba 3f7a b1bd 2def c13d
000000d0: 6813 b3bb a6d9 11bc bbcb e6bb f251 d3a9
000000e0: 4975 a6bb 255e 70bc e472 f6ba bde3 b3b7
000000f0: 9ca5 0cb9 0a72 22b7 c49f dfbc a700 38b8

gnn.gnn_layer.edge_func.0.weight f4 [32, 11]
-4.76e-41 5.30578e-40 1.497464e-39 6.08284e-40 2.42472e-40 -5.98199e-40 1.2255931e-34 6.9189e-41
1.492945e-39 1.582366e-39 -3.44068e-40 8.498582e-08 -3.569604e-08 1.6373413e-09 -0.009350439 -0.01835432
-0.008062909 -0.014701006 1.60325e-39 -1.8562356e-09 -3.4771115e-09 -0.00052290165 -1.8745848e-17 -7.0969264e-17
-3.952147e-18 -1.5194371e-16 2.5658593e-17 -2.8096734e-16 1.4701653e-16 5.2349e-40 -1.884242e-19 -7.2140605e-18
-7.2991886e-17 4.53934e-40 -1.39679e-40 -7.45589e-40 -8.32116e-22 -3.9831944e-16 -1.136869e-21 -6.3188617e-19
-1.2715e-40 -6.68077e-40 -5.85956e-40 4.2873e-41 -0.010866005 -3.4553985e-05 -9.768683e-35 -0.010173033
-0.02278019 -0.017121641 -0.02483743 1.47168e-39 1.8160498e-35 4.4489267e-35 -0.008738131 0.032705855
0.4591541 0.11182906 -0.34915313 0.3033291 -0.04759775 -0.0037739566 1.439459e-39 0.12404561
-0.007135527 -0.09031509 1.1381556e-27 5.139117e-29 8.1784585e-29 -5.5811385e-26 -1.889611e-25 -7.042977e-26
-2.005175e-25 -6.69397e-40 -9.490329e-29 -2.904046e-28 -6.677947e-27 -2.8232516e-22 -1.192926e-21 8.2278784e-26
9.244084e-23 -1.3070311e-21 4.2061512e-26 -1.0037004e-21 2.010813e-39 -1.110521e-23 3.1764018e-27 1.8426858e-22
0.013878578 0.44105968 0.08291323 -0.32976243 0.26613548 -0.06183107 0.013070799 2.26754e-40
0.087515645 -0.005128866 -0.05764966 5.08995e-40 -2.66405e-40 3.80954e-40 -2.1864244e-25 -5.274237e-18
-4.173181e-31 -3.4596256e-24 -9.68386e-40 1.04081e-40 5.8133e-40 -6.17356e-40 0.08339507 0.27960265
-0.006957397 -0.30080566 0.31326097 -0.04939109 -0.020074913 -9.14525e-40 0.034662314 0.0007112706
-0.040788233 -0.0012518495 -4.1072717e-08 -5.12397e-40 -0.0056712083 -0.0127405245 -0.006443971 -0.015743662
9.14081e-40 3.92655e-40 -4.14242e-40 -0.0012119769 0.09158156 0.2819293 0.043491725 -0.29859805
0.31574905 -0.07214997 -0.0058089294 -5.89285e-40 0.040240046 -0.0009823736 -0.026724463 -2.5040248e-05
5.9870233e-15 2.59738e-40 -0.010731327 -0.019883113 -0.010592641 -0.015577196 8.75423e-40 -2.34929e-40
-6.61156e-40 -0.0004391517 0.6023049 -0.24397145 -0.2947565 -4.2167443e-09 -0.18558359 -0.67100835
0.36728898 1.026373e-39 -0.001620847 -0.011563549 -0.28146833 -7.0320094e-10 -8.299988e-22 -5.3929e-40
-1.620344e-05 -0.0002536233 -1.3660927e-05 -0.0003121265 3.98001e-40 9.47454e-40 -8.13398e-40 -4.516633e-10
-5.19023e-40 -7.07712e-40 3.20635e-40 -2.5064231e-27 -6.7557945e-24 -4.2444316e-26 -1.7824115e-23 1.91173e-39
2.17309e-40 7.47748e-40 3.54739e-40 3.958186e-33 1.7564082e-33 4.6170267e-35 -1.5723745e-10 -4.3850832e-08
-3.0993825e-13 -8.946028e-08 -1.917031e-39 -1.4972392e-34 5.4695127e-35 -2.2903257e-29 -1.3591966e-08 3.6982938e-23
8.71892e-40 -2.4943763e-05 -0.00029496747 -2.5080286e-05 -0.00039437602 -1.794136e-39 6.3539e-40 8.57324e-40
-1.1317975e-09 -1.0789907e-26 -6.871422e-27 -9.076478e-27 -9.561066e-26 -1.5662338e-25 -3.9564456e-26 -6.7131773e-26
1.733384e-39 -3.8495856e-28 -6.6814485e-27 5.0741155e-27 -1.2194681e-10 1.0796831e-36 2.3316905e-37 -0.0007187756
-0.002191007 -0.00033068887 -0.0013629961 2.592811e-39 -1.6898578e-37 -1.3003447e-37 -5.613672e-08 8.953733e-36
-3.97589e-38 7.27668e-39 -1.05015325e-35 -2.6325427e-14 -2.282104e-13 -9.183628e-16 -1.373717e-39 2.789496e-39
-1.0710501e-38 1.9563887e-37 -1.68537e-40 -7.41199e-40 -7.62961e-40 -7.2099046e-20 -1.07988095e-13 -3.7968957e-20
-5.0257186e-16 -2.39412e-39 -8.29492e-40 -8.44057e-40 4.44807e-40 -0.054972567 0.5442428 0.16815236
00000000: b084 0080 09c7 0500 524e 1000 a69f 0600
00000010: eaa3 0200 8983 0680 c6e8 2207 dfc0 0000
00000020: b941 1000 fe3a 1100 1fbf 0380 7381 b633
00000030: 3650 19b3 d308 e130 9532 19bc cd5b 96bc
00000040: 4b1a 04bc 7ddc 70bc 3575 1100 7c1e ffb0
00000050: fef1 6eb1 5613 09ba 62e6 aca3 dca4 a3a4
00000060: f9ce 91a2 de2d 2fa5 a4a8 ec23 76f7 a1a5
00000070: 9f7f 2925 47b3 0500 b873 5ea0 7013 05a3
00000080: ce4e a8a4 62f1 0400 5e85 0180 661e 0880
00000090: db7d 7b9c 939d e5a5 7dcc ab9c f87f 3aa1
000000a0: 7162 0180 5446 0780 6861 0680 8377 0000
000000b0: 5407 32bc 0fee 10b8 1bd9 0187 cbac 26bc
000000c0: 859d babc af42 8cbc de77 cbbc 7206 1000
000000d0: 941d c105 a78b 6c06 612a 0fbc 93f6 053d
000000e0: 3f16 eb3e a206 e53d 33c4 b2be f44d 9b3e
000000f0: dcf5 42bd 7c54 77bb a0ac 0f00 a00b fe3d
00000100: 24d1 e9bb 1ef7 b8bd 1359 b412 c74a 8210
00000110: 3b59 cf10 ab2e 8a95 2aec 6996 2c60 ae95
00000120: 883a 7896 024a 0780 c29b f090 d710 b891
00000130: 3745 0494 b4a7 aa9b 1745 b49c 60b6 cb15
00000140: 1c82 df1a 5183 c59c 4d47 5015 c7ac 979c
00000150: 54e5 1500 56ce 5699 15a9 7b13 5dc4 5e1b
00000160: fa62 633c 93d2 e13e 69ce a93d 9fd6 a8be
00000170: e942 883e 9342 7dbd e826 563c 1978 0200
00000180: 673b b33d 0c10 a8bb 0d22 6cbd df8a 0500
00000190: a1e6 0280 f225 0400 4755 8796 c395 c2a2
000001a0: 6e6d 078d 79d6 8598 778b 0a80 2322 0100
000001b0: 8354 0600 f0b8 0680 09cb aa3d 1428 8f3e
000001c0: e0fa e3bb 3303 9abe be63 a03e 504e 4abd
000001d0: 2574 a4bc 53f5 0980 12fa 0d3d 9074 3a3a
000001e0: 9011 27bd 1915 a4ba ee67 30b3 5b94 0580
000001f0: 8bd5 b9bb a2bd 50bc f227 d3bb daf8 80bc
00000200: 16f4 0900 9046 0400 bd82 0480 32db 9eba
00000210: 1d8f bb3d 0a59 903e 6124 323d d8e1 98be
00000220: dca9 a13e 5dc3 93bd d558 bebb b06a 0680
00000230: bfd2 243d fdc2 80ba 43ed dabc 860d d2b7
00000240: 8bb4 d727 0bd4 0200 73d2 2fbc e9e1 a2bc
00000250: c28c 2dbc 7f37 7fbc 5388 0900 e38e 0280
00000260: 0933 0780 f23d e6b9 a730 1a3f a7d3 79be
00000270: 53ea 96be e0e2 90b1 a009 3ebe 34c7 2bbf
00000280: 4d0d bc3e 1c2d 0b00 9a72 d4ba 0a75 3dbc
00000290: 9e1c 90be 5e4b 41b0 0cda 7a9c 52df 0580
000002a0: 9fec 87b7 bef8 84b9 3c31 65b7 e9a4 a3b9
000002b0: 7755 0400 1e51 0a00 6cdb 0880 f54d f8af
000002c0: d3a6 0580 d0b4 0780 cd7d 0300 4d94 4693
000002d0: 13ad 0299 902c 5295 5f62 ac99 20d1 1400
000002e0: c55d 0200 6b24 0800 dedc 0300 a76a a409
000002f0: acea 1109 b67b 7506 68e2 2caf 8056 3cb3
00000300: cf7a aeaa 4f1d c0b3 e7df 1480 6904 4787
00000310: 9367 9106 4144 e88f 1982 69b2 a9d6 321a
00000320: 7b7e 0900 533e d1b7 dda5 9ab9 8163 d2b7
00000330: 41c4 ceb9 5289 1380 35eb 0600 df55 0900
00000340: 968d 9bb0 54b7 5594 401a 0894 36c7 3394
00000350: 75b8 ec95 eee3 4196 e8e9 4395 d135 a695
00000360: f8df 1200 19ff f391 f856 0494 a501 c913
00000370: fa14 06af d5b2 b703 c7af 9e02 376c 3cba
00000380: ff96 0fbb 4f60 adb9 8fa6 b2ba b43b 1c00
00000390: f302 6682 66fe 3082 fa1a 71b3 c26c 3e05
000003a0: d277 5881 6c3c 4f00 c857 5f85 4d1e eda8
000003b0: 9678 80aa 9b59 84a6 5df5 0e80 fb5f 1e00
000003c0: 85a0 7480 1925 8502 d0d5 0180 2912 0880
000003d0: d34e 0880 333d aa9f e62a f3a9 a74d 339f
000003e0: 42db 10a6 d511 1a80 4908 0980 e330 0980
000003f0: f1d7 0400 ea2a 61bd 7f53 0b3f 2230 2c3e

gnn.gnn_layer.edge_func.0.bias f4 [32]
-1.8143587e-21 -0.023281854 -2.319373e-16 -2.3566057e-18 -0.029943252 0.021238178 -2.8650168e-25 -1.6185453e-21
0.04931275 -9.976549e-19 0.004249111 -0.023868237 0.0023551856 -0.0240573 0.23361862 -0.0012059378
-9.256301e-17 -2.3434368e-06 -0.0012915032 -1.1185066e-25 -0.0033728967 -4.1533088e-12 -3.6938937e-12 0.21659242
-2.987804e-08 0.0801571 -0.012432155 -0.0052109975 -0.019239709 -0.05064351 -3.170079e-08 -0.0009152348
00000000: cd16 099d 96b9 bebc e7b3 85a5 06e3 2da2
00000010: 8d4b f5bc b0fb ad3c 0156 b196 7096 f49c
00000020: 2bfc 493d 563a 93a1 203c 8b3b 5287 c3bc
00000030: 7559 1a3b d113 c5bc b839 6f3e 8f10 9eba
00000040: 8f6f d5a4 f043 1db6 a847 a9ba e476 0a96
00000050: d10b 5dbb ae21 92ac a3f7 81ac 67ca 5d3e
00000060: 4153 00b3 6829 a43d 3db0 4bbc 04c1 aabb
00000070: 989c 9dbc 926f 4fbd 6327 08b3 5eec 6fba

gnn.gnn_layer.edge_func.2.weight f4 [4096, 32]
-2.273301e-39 1.3782258e-11 2.8184074e-22 1.342148e-39 1.0660514e-37 1.4446608e-06 -1.1452164e-36 -5.4121294e-28
-3.019644e-08 -5.78121e-40 4.6969842e-07 1.511072e-39 7.457104e-07 -1.718687e-39 -3.798666e-05 -1.377765e-39
-5.84847e-40 -5.960444e-38 2.310918e-39 4.3771163e-30 -2.625264e-39 1.652251e-39 2.547849e-39 -1.2561841e-05
-1.656368e-39 1.7891078e-06 2.525393e-39 -1.807997e-39 8.72478e-40 -2.3204925e-09 -2.39597e-39 -3.9106078e-25
-2.46467e-39 -1.2513122e-13 8.319588e-21 -1.494832e-39 2.098009e-39 4.908597e-06 -1.2195875e-32 8.579707e-28
8.133217e-05 -2.1137e-40 0.000104497805 1.765154e-39 0.0002643736 -2.46982e-40 3.3879416e-05 -2.63228e-39
-2.341142e-39 -3.361858e-39 4.7024e-40 1.3451954e-28 -2.158388e-39 1.730085e-39 -2.126029e-39 0.00033031317
-2.830977e-39 0.0003292521 2.504597e-39 -2.299458e-39 -1.528748e-39 -2.3751094e-08 2.196154e-39 -3.5340027e-25
1.016415e-39 -6.582316e-15 -6.928341e-22 1.583306e-39 2.245528e-39 0.009848984 -1.852477e-30 -1.9905536e-29
0.008287144 -1.999692e-39 0.0109559335 -2.155811e-39 0.007749792 1.973222e-39 -0.06528992 -8.22718e-40
-1.68772e-39 -2.493724e-39 -4.323e-42 -3.0762438e-31 4.4154e-41 1.348617e-39 -1.693276e-39 -0.056510765
1.46153e-39 -0.000110666624 -1.243497e-39 1.538448e-39 -6.40029e-40 4.6446758e-10 5.82541e-40 -2.311023e-39
-1.324353e-39 1.8006782e-11 2.057178e-20 -2.131822e-39 -5.500643e-39 5.7276025e-05 1.7107754e-32 -1.684553e-39
4.933078e-05 -1.633069e-39 8.490481e-05 -1.847098e-39 6.378039e-05 -7.81908e-40 -0.00042921968 2.418673e-39
6.27382e-40 1.1435839e-36 9.6738e-40 1.271958e-29 2.342926e-39 -2.550063e-39 -6.54457e-40 9.547545e-05
5.98305e-40 -1.9976449e-05 1.401332e-39 2.155348e-39 2.52438e-39 3.2221257e-07 5.07112e-40 -1.1408138e-24
-1.096805e-39 1.0423687e-12 9.622837e-22 -2.413781e-39 -6.2724126e-38 -0.0004697706 -1.2113804e-29 -1.0195196e-27
-0.0005291611 2.139664e-39 -0.000439626 -1.965353e-39 -0.00032720398 1.868416e-39 0.00013204866 1.60911e-39
-8.30262e-40 1.0887132e-37 -1.591792e-39 1.6775073e-29 -2.127172e-39 -1.592021e-39 -1.289399e-39 -0.00029639323
2.231796e-39 -0.0004312327 -1.683625e-39 2.290623e-39 5.02944e-40 5.366461e-10 -2.39084e-40 -1.4845298e-24
-1.699645e-39 6.646887e-11 -2.2104263e-20 2.500034e-39 -2.6724753e-37 -4.188697e-05 1.7263175e-32 2.2271438e-27
-0.00010111628 1.1977e-39 -7.369997e-05 2.548236e-39 -9.930643e-05 -2.555607e-39 -0.001726779 8.00134e-40
-2.891628e-39 1.2953397e-38 -2.390217e-39 5.615138e-29 -1.571396e-39 -2.528558e-39 -2.323863e-39 9.6430944e-05
-2.596399e-39 -9.891617e-05 2.36077e-39 -2.606353e-39 -1.532162e-39 3.8264733e-07 2.876744e-39 -6.842453e-26
-1.229382e-39 1.00321065e-27 8.750944e-31 -2.408295e-39 -8.185028e-39 1.1991467e-05 -7.791101e-31 -6.572996e-29
1.5258835e-05 2.810143e-39 1.1422972e-05 2.785662e-39 1.0567436e-05 -2.30974e-39 -0.0002659512 2.342601e-39
-2.533891e-39 -1.4377e-41 -2.246172e-39 2.5671515e-29 6.04302e-40 8.43366e-40 -2.031947e-39 -4.2659813e-05
2.137238e-39 1.179253e-05 2.530336e-39 7.37732e-40 -2.4569e-39 -8.0142154e-22 2.531949e-39 8.175938e-28
-2.176441e-39 4.5762873e-12 -2.426034e-22 1.743613e-39 -8.706571e-37 4.7413123e-06 -2.5573135e-32 -5.3948187e-27
1.0977055e-05 1.040044e-39 -8.598897e-06 1.660945e-39 -2.0298091e-06 2.070476e-39 5.3557353e-05 7.74924e-40
2.310324e-39 -2.136234e-37 2.960746e-39 1.0029179e-29 -1.290258e-39 -2.836172e-39 -1.091432e-39 -2.3559394e-05
2.355218e-39 8.026207e-06 -1.777177e-39 -2.201628e-39 -2.324676e-39 1.7863457e-17 -1.711476e-39 -8.334207e-25
00000000: 0ac1 1880 c675 722d be5c aa1b 5d9d 0e00
00000010: 781a 1102 2be6 c135 36d9 c283 6984 2b92
00000020: 56b1 01b3 914b 0680 dc2a fc34 4174 1000
00000030: d42c 4835 00b7 1280 de53 1fb8 a600 0f80
00000040: 515e 0680 3b42 a281 e629 1900 938e b10e
00000050: 2b96 1c80 cefd 1100 5ebe 1b00 b2c0 52b7
00000060: 4809 1280 4721 f035 c57f 1b00 f6af 1380
00000070: 1d80 0900 8976 1fb1 fd16 1a80 0e0e f296
00000080: 7fd6 1a80 9ee2 0caa 0f27 1d1e fc46 1080
00000090: 65d8 1600 87b4 a436 654c 7d8a 6df3 8712
000000a0: e090 aa38 374d 0280 d525 db38 8838 1300
000000b0: a09b 8a39 7cb0 0280 bf19 0e38 baa9 1c80
000000c0: 277e 1980 7e9b 2480 d61e 0500 1686 2a11
000000d0: b580 1780 c6d6 1200 8126 1780 e22d ad39
000000e0: 9dd3 1e80 789f ac39 cc45 1b00 f409 1980
000000f0: 87a5 1080 3505 ccb2 fce9 1700 82be da96
00000100: 5a11 0b00 2627 eda7 7165 519c 9d3d 1100
00000110: 9e73 1800 a25d 213c 714a 168e badd c98f
00000120: cdc6 073c 54c6 1580 8480 333c 8679 1780
00000130: f8f1 fd3b 8a7c 1500 b9b6 85bd 67f5 0880
00000140: ad60 1280 7d27 1b80 0d0c 0080 dea8 c78c
00000150: 157b 0000 65af 0e00 2a70 1280 d577 67bd
00000160: 27ea 0f00 b115 e8b8 5d8a 0d80 91c0 1000
00000170: 24f8 0680 0058 ff2f e357 0600 312a 1980
00000180: c26b 0e80 ab63 9e2d 834b c21e a736 1780
00000190: 8ee5 3b80 aa3b 7038 36a8 b10a d957 1280
000001a0: 86e8 4e38 55c8 1180 ec0e b238 f51c 1480
000001b0: d6c1 8538 a483 0880 e408 e1b9 4756 1a00
000001c0: e3d4 0600 1b92 c203 a988 0a00 ebfd 800f
000001d0: 2083 1900 8ac4 1b80 5c20 0780 fe39 c838
000001e0: d583 0600 1993 a7b7 5842 0f00 3c78 1700
000001f0: f27c 1b00 8ffc ac34 9f85 0500 4a88 b097
00000200: 72f1 0b80 4ab3 922b 8c6a 911c a448 1a80
00000210: 56c0 aa81 8b4b f6b9 77b2 758f a18c a192
00000220: 66b7 0aba 834c 1700 9a7d e6b9 9b66 1580
00000230: 938c abb9 6258 1400 8b76 0a39 8b85 1100
00000240: 6f0a 0980 1e30 1402 4555 1180 941e aa0f
00000250: b129 1780 e855 1180 520a 0e80 3a65 9bb9
00000260: 574d 1800 1317 e2b9 4355 1280 53f1 1800
00000270: 017a 0500 1d83 1330 789a 0280 49b8 e597
00000280: eb81 1280 a62a 922e d4c4 d09e 1439 1b00
00000290: 16e1 b582 cbaf 2fb8 6445 b30a d873 3013
000002a0: 640e d4b8 b30a 0d00 5f8f 9ab8 72bf 1b00
000002b0: bc42 d0b8 fed3 1b80 1755 e2ba 73b6 0800
000002c0: af7c 1f80 cd0c 8d00 f406 1a80 545c 8e10
000002d0: 6a1c 1180 9788 1b80 fc4d 1980 f83a ca38
000002e0: b445 1c80 3771 cfb8 deb4 1900 7461 1c80
000002f0: 0baf 1080 a66e cd34 3153 1f00 3369 a995
00000300: 0463 0d80 0ff7 9e12 00fe 8d0d 5939 1a80
00000310: 8720 5980 f52e 4937 efd5 7c8d 2fa5 a690
00000320: 1900 8037 8999 1e00 4ba5 3f37 4b55 1e00
00000330: cb4a 3137 9e26 1980 5e6f 8bb9 3882 1900
00000340: 7597 1b80 1428 0080 6a75 1880 882b 0210
00000350: 8c94 0600 f62e 0900 3e20 1680 a0ed 32b8
00000360: c045 1700 88d8 4537 8c8d 1b00 7f08 0800
00000370: d6c0 1a80 fd36 729c 0b92 1b00 8b8d 8112
00000380: 08b3 1780 8803 a12c 0fa5 929b 7cfc 1200
00000390: 7722 9483 9017 9f36 87c8 048b f6b5 d593
000003a0: 182a 3837 3853 0b00 fb43 10b7 0a16 1200
000003b0: db37 08b6 a58b 1600 c5a2 6038 2c70 0800
000003c0: 3e28 1900 7262 9182 5b3d 2000 7a6a 4b0f
000003d0: b70c 0e80 18e2 1e80 78e2 0b80 6aa1 c5b7
000003e0: 64a5 1900 4ca8 0637 0c5a 1380 3ef9 1780
000003f0: 4050 1980 e5c2 a423 e6a2 1280 32f7 8097

gnn.gnn_layer.edge_func.2.bias f4 [4096]
-7.080512e-05 -0.002787854 -0.07807514 -0.001029241 0.00045447744 -0.0029639006 -0.0006035418 -0.00018827095
0.230912 -7.7796426e-07 -0.005697636 0.43050778 -2.1849764e-05 -0.000705516 1.0254887e-22 -1.2009132e-08
4.4509263e-05 -0.0010107406 0.47254103 -1.11378085e-05 -0.0014252873 -9.976307e-07 -0.028149024 1.244866e-39
-0.011948728 -0.003444703 4.6993e-41 -0.0010169686 -3.9818797e-06 -0.0003003682 -0.003569785 -4.81929e-40
-0.008830785 -6.41147e-40 -0.00023709291 -0.014468865 7.689248e-06 -1.7907603e-06 -0.010043854 -0.0002083789
-0.0013228344 -0.0009322406 0.18361245 6.2715263e-37 -0.0003475279 -0.000121890655 -0.0012648687 -0.00053481164
-0.0017190134 -0.0004038661 -0.0036921212 0.71956277 -0.0037667986 -0.0052490546 -0.007869914 1.1011267e-13
-0.0001819088 -0.003490177 -0.0008666382 -1.7394272e-05 -0.0001697861 -1.2241945e-05 -0.033414412 1.4245884e-05
-3.8905622e-05 6.9117676e-05 -0.023993079 -0.0001528438 -0.0006170349 -9.499106e-05 -0.00011981743 -1.50449805e-05
0.00024696402 -3.58934e-08 -0.00038556746 0.044393823 -1.3164871e-05 -0.0006492339 -9.8333184e-23 2.4085073e-10
-7.641205e-05 -3.242831e-05 0.06063752 9.44947e-06 -0.0009682003 -0.0006385837 -0.020130841 -1.433126e-39
-0.017134776 7.31975e-05 2.9455e-41 -0.00044149355 -2.0970638e-06 -0.0005097288 -0.0008879013 -9.41143e-40
-0.0021041292 8.29573e-40 8.1801976e-05 -0.009020856 1.0138287e-05 1.5657476e-19 0.00044366933 -0.00015581533
-0.00033106128 -0.00027733407 -0.0059789936 -2.4335217e-36 -0.00061794306 -0.002073446 -0.0046806857 -0.00028882438
-9.925589e-05 -2.6757329e-05 -0.07819875 0.12634678 0.00054954627 -0.0006053745 0.00015932412 -4.2710385e-13
0.00023096643 0.00014291817 -6.1000173e-05 -1.3483811e-05 -0.00015812115 -6.394842e-06 -0.0010201101 4.9188793e-06
-1.7345144e-06 5.9745606e-05 -0.038156874 5.694776e-05 -0.0033738264 0.00024973863 -4.2691216e-05 -1.9792535e-05
0.016176466 6.197061e-07 -0.00023035269 0.033373803 -7.268472e-06 -2.4510295e-05 9.995471e-24 8.897664e-09
-0.0001732386 -8.71822e-05 0.032375626 1.6572298e-05 0.0022085914 -0.0005303542 6.537951e-05 -5.653e-41
-0.014240966 -0.00022187862 -8.21614e-40 -0.00023266922 -4.4557217e-07 -0.00029410786 0.0010926187 4.24701e-40
0.00025252436 1.1093e-39 9.636595e-05 0.0031999727 -6.600195e-05 3.608661e-21 -6.736695e-05 -0.00013250519
-0.0003400977 3.9095758e-05 0.01237549 -2.319233e-36 0.00093618943 -0.0012695711 0.0021975136 -0.00028933916
-0.00036606638 -7.999907e-06 -0.0087284455 0.06963184 -0.0002852938 6.432779e-07 2.1322369e-07 -6.6516405e-13
0.0006167126 -1.2846004e-05 -7.448351e-05 -9.233589e-05 9.0405505e-05 -6.6149596e-06 -0.0001278141 5.138114e-06
-1.6164148e-07 -0.0001698696 0.04247129 -9.786915e-05 0.0032304286 -0.0003011594 5.98811e-05 4.1242733e-05
-0.01713823 -5.905026e-07 -0.00022988094 -0.03805368 9.4709285e-06 -7.907809e-05 -3.6462388e-23 -1.2462227e-08
0.00016856469 2.9716282e-05 -0.037400026 -1.6412823e-05 -0.0021979485 0.00059772964 0.000107644555 5.09424e-40
0.015894549 0.00012430082 4.70864e-40 0.00025191094 8.859718e-07 0.0002495523 -0.00072589883 -1.5054e-40
-1.9848894e-05 -4.24082e-40 -0.00012929035 -0.0029372284 6.297515e-05 4.1148348e-20 1.2018568e-05 0.00016090782
0.00039866552 -4.3661625e-05 -0.012819419 -1.9898481e-36 -0.0009818537 0.0013286839 -0.003052388 0.00033341462
0.0003749987 1.7607234e-05 0.012192179 -0.07872614 0.0002246183 -0.00010311429 0.000959394 -6.313361e-14
-0.00032788253 4.2016864e-06 5.2045518e-05 9.814213e-05 -4.368932e-05 7.620763e-06 0.00011360104 -1.7709015e-06
00000000: 367d 94b8 6eb4 36bb dce5 9fbd 99e7 86ba
00000010: ee46 ee39 003e 42bb 0137 1eba 996a 45b9
00000020: 3274 6c3e 4cd5 50b5 3cb3 babb 846b dc3e
00000030: 034a b7b7 61f2 38ba adf2 f71a b950 4eb2
00000040: 75af 3a38 d47a 84ba e6f0 f13e 86dc 3ab7
00000050: b5d0 baba 54e6 85b5 c898 e6bc 2e8e 0d00
00000060: 99c4 43bc 87c0 61bb ff82 0000 ce4b 85ba
00000070: 169c 85b6 bd7a 9db9 0ef3 69bb 6c3f 0580
00000080: ffae 10bc 42fb 0680 259c 78b9 d10e 6dbc
00000090: 1201 0137 0e5a f0b5 fa8e 24bc 4980 5ab9
000000a0: f562 adba 9c61 74ba e704 3c3e b368 5503
000000b0: 6834 b6b9 8c9f ffb8 f3c9 a5ba 9a32 0cba
000000c0: 8550 e1ba febd d3b9 84f7 71bb 4435 383f
000000d0: 65dc 76bb 4300 acbb d0f0 00bc a2f3 f729
000000e0: c6be 3eb9 74bb 64bb 1b2f 63ba eae9 91b7
000000f0: 9c08 32b9 c162 4db7 8ddd 08bd 9b01 6f37
00000100: 982e 23b8 45f3 9038 228d c4bc b244 20b9
00000110: 83c0 21ba f035 c7b8 7e46 fbb8 b369 7cb7
00000120: f37a 8139 3629 1ab3 fd25 cab9 4cd6 353d
00000130: b1de 5cb7 5931 2aba 4bc1 ed9a ba68 842f
00000140: 683f a0b8 a203 08b8 0c5f 783d 2a89 1e37
00000150: d2ce 7dba a066 27ba 6fe9 a4bc f99a 0f80
00000160: 3b5e 8cbc 9c81 9938 1c52 0000 4378 e7b9
00000170: 48bb 0cb6 529f 05ba 0cc2 68ba 863f 0a80
00000180: 6ee5 09bb 8308 0900 1a8d ab38 36cc 13bc
00000190: 9c17 2a37 d1d9 3820 4a9c e839 5c62 23b9
000001a0: 4b92 adb9 2667 91b9 6feb c3bb 6905 4f84
000001b0: 75fd 21ba a7e2 07bb 7060 99bb 5a6d 97b9
000001c0: 9a27 d0b8 ed74 e0b7 ab26 a0bd 0d61 013e
000001d0: 6d0f 103a ffb1 1eba 3e10 2739 2770 f0aa
000001e0: 942f 7239 4edc 1539 70da 7fb8 8738 62b7
000001f0: 53cd 25b9 4693 d6b6 37b5 85ba da0c a536
00000200: 76cd e8b5 5b97 7a38 624a 1cbd 31db 6e38
00000210: 6a1b 5dbb 5aef 8239 580f 33b8 2508 a6b7
00000220: 8284 843c e159 2635 d48a 71b9 f8b2 083d
00000230: b3e3 f3b6 759b cdb7 2d57 4119 57dc 1832
00000240: 62a7 35b9 96d5 b6b8 4e9c 043d bd04 8b37
00000250: 04be 103b 7807 0bba 5b1c 8938 959d 0080
00000260: f152 69bc 17a8 68b9 53f2 0880 abf8 73b9
00000270: f936 efb4 7d32 9ab9 3336 8f3a e59f 0400
00000280: 3f65 8439 4714 0c00 1318 ca38 a2b6 513b
00000290: 876a 8ab8 d454 881d 5b47 8db8 17f1 0ab9
000002a0: 244f b2b9 c0fa 2338 91c2 4a3c 6c4c 4584
000002b0: 9c6a 753a bd67 a6ba 2904 103b 72b2 97b9
000002c0: 99ec bfb9 5737 06b7 c101 0fbc 239b 8e3d
000002d0: 7c93 95b9 b8ad 2c35 7bf2 6434 1f3a 3bab
000002e0: e2aa 213a 2b85 57b7 0834 9cb8 74a4 c1b8
000002f0: 1698 bd38 12f6 ddb6 d605 06b9 1068 ac36
00000300: ac8f 2db4 061f 32b9 60f6 2d3d 1a3f cdb8
00000310: 99b5 533b eee4 9db9 d728 7b38 0cfc 2c38
00000320: 7965 8cbc 0883 1eb5 320c 71b9 2dde 1bbd
00000330: 54e5 1e37 bad6 a5b8 4052 309a 7419 56b2
00000340: bdc0 3039 3b47 f937 c530 19bd 45ae 89b7
00000350: 750b 10bb f5b0 1c3a 3bbf e138 118c 0500
00000360: 4935 823c bf56 0239 9420 0500 ea12 8439
00000370: 85d3 6d35 58d6 8239 3f4a 3eba a5a3 0180
00000380: 2d81 a6b7 2b9e 0480 1d92 07b9 847e 40bb
00000390: 8711 8438 4d51 421f 5ba3 4937 5db9 2839
000003a0: fb03 d139 5021 37b8 8a08 52bc 0e47 2984
000003b0: 8bb1 80ba 3c27 ae3a 930a 48bb 27ce ae39
000003c0: 799b c439 3fb3 9337 b5c1 473c 2c3b a1bd
000003d0: 8487 6b39 103f d8b8 d77f 7b3a 0c2a 8ea9
000003e0: a6e7 abb9 36fc 8c36 734b 5a38 a8d1 cd38
000003f0: 0d3f 37b8 dbb5 ff36 183d ee38 b6af edb5

gnn.gru.weight_ih_l0 f4 [192, 64]
-1.3114564e-08 -6.5298327e-06 0.009932317 3.942872e-07 -1.6423525e-06 2.5442494e-06 1.011188e-08 -1.9609134e-07
0.0011223869 1.1964811e-11 -1.0637012e-05 -0.0074981838 2.7535306e-08 -1.7734788e-05 -4.6534003e-25 1.5966083e-14
-9.2067046e-07 -3.6583083e-06 -0.010498463 -1.5022376e-08 1.9305223e-06 3.001904e-07 -0.000535348 -2.336459e-39
-8.1848055e-05 1.0490824e-06 2.210726e-39 -1.1980543e-07 1.6555266e-12 -1.15156945e-05 2.343969e-06 2.690859e-39
-2.2133758e-05 -1.29096e-39 3.2149714e-08 -1.5013215e-06 2.488218e-07 -7.2073526e-20 -5.6339236e-06 -3.2894187e-07
-7.156556e-07 2.3236996e-07 0.0019975847 6.22465e-40 -1.0260884e-06 0.00011910973 -4.308122e-06 1.8919924e-07
-2.9013697e-06 -5.35606e-07 -4.2275033e-06 -0.018110976 -1.9278068e-06 4.531342e-07 4.45956e-07 1.835388e-15
3.452174e-06 -9.245815e-06 8.581894e-07 3.3110954e-08 -6.861181e-08 1.3705392e-08 -3.1812988e-08 -1.7792646e-08
-2.2194136e-08 -2.0922744e-05 -0.0004757588 -4.4870762e-06 1.9053405e-05 -1.6188154e-05 -1.805065e-07 1.0578067e-06
-0.0030389577 4.930569e-11 8.04178e-07 -0.0069861296 2.611363e-07 -5.659139e-05 -7.986208e-25 2.8272725e-14
-1.0764174e-06 -2.7583761e-05 -0.006966399 -2.9991793e-07 -6.0887e-06 5.5049765e-07 -0.00042941526 -2.81217e-39
-0.00045981156 -1.0242949e-05 1.884992e-39 -2.5127048e-07 -2.8673817e-12 -7.7331075e-05 1.2415071e-06 2.055936e-39
2.3262646e-05 1.248925e-39 -1.8471798e-06 -6.841725e-06 6.3282806e-07 -1.7303231e-21 -5.8614023e-05 -2.072518e-06
-6.432627e-06 -4.5216385e-07 -0.002930966 -1.600242e-39 -7.2083817e-06 4.5188776e-06 -9.8368e-05 3.135026e-07
-2.3108158e-05 -3.5204723e-06 0.0019535827 -0.009649614 -7.861439e-05 9.901102e-06 1.342131e-06 2.6308947e-15
-1.623508e-05 -3.1698986e-05 8.177801e-07 2.042397e-06 -9.692768e-07 1.8386274e-07 2.8916132e-08 -5.116986e-08
7.59324e-08 -1.8192069e-06 -0.0003149777 -5.7972766e-06 0.00059883646 1.4897112e-06 -3.3968962e-07 3.8866077e-07
-0.013223714 -9.1628194e-10 8.837574e-06 -0.018049527 2.8562738e-07 -0.0001143124 -1.6504358e-24 9.019861e-14
8.982608e-06 -6.470708e-06 -0.018730342 -1.3613314e-07 -1.5137817e-05 2.081655e-06 0.00020380334 9.65067e-40
-0.0006909372 2.992348e-06 1.612558e-39 7.318869e-06 -2.3933436e-12 -0.00016358803 -1.0139005e-07 -2.633137e-39
-9.58157e-06 9.82599e-40 -1.7488467e-06 -3.3823588e-05 2.4565295e-06 -1.27748635e-20 -0.00011277475 -1.9566921e-06
3.313263e-06 -4.9935475e-06 -0.011271126 -4.53571e-40 -1.1273698e-05 8.864419e-05 -0.000120449266 7.4309287e-06
-2.675717e-05 -1.2007879e-06 -0.00019614193 -0.019763235 -6.33769e-05 -6.498783e-07 -8.955595e-06 -5.5357817e-15
-6.825213e-06 -1.5956164e-05 7.893505e-06 2.0809284e-06 -5.142987e-07 2.458991e-07 3.3042818e-07 -1.395724e-07
8.8436884e-09 -5.345967e-08 0.00049537496 -4.922071e-06 0.0003178935 1.7189094e-06 -2.308665e-07 1.828345e-06
-0.011534129 -4.8047233e-10 1.0841892e-05 -0.0151130995 2.6173979e-07 -0.00011464735 1.8801916e-24 -1.3732098e-13
7.2893067e-06 -9.005263e-06 -0.016029961 -3.0783733e-07 -7.2569733e-06 2.8018826e-07 3.1536296e-05 2.309407e-39
0.00016554892 9.533752e-06 2.37989e-39 7.035397e-06 -1.5802056e-11 -0.00015630909 -2.8031895e-06 -2.321032e-39
-6.906892e-07 2.531455e-39 -2.4144454e-06 -1.9342393e-05 2.5026686e-06 -3.1359263e-21 -0.00010360041 -1.923073e-06
3.7760944e-06 -3.900797e-06 -0.010183307 -1.669574e-39 -1.052261e-05 7.902907e-05 -0.00010105373 7.663519e-06
-1.9299616e-05 -5.6422e-07 0.00015529589 -0.016357508 -5.2626274e-05 3.1914594e-06 2.0256166e-06 1.6926263e-15
-6.0230363e-06 4.0807674e-05 7.876491e-06 2.770883e-06 -1.194235e-07 2.5159093e-07 1.9932187e-07 -2.126054e-07
00000000: 764e 61b2 d61a dbb6 28bb 223c 6cae d334
00000010: cd6e dcb5 dfbd 2a36 85b8 2d32 2d8d 52b4
00000020: 0e1d 933a b87c 522d 9e75 32b7 53b3 f5bb
00000030: c786 ec32 2bc5 94b7 0904 1097 48cf 8f28
00000040: fe23 77b5 4281 75b6 bf01 2cbc 8e0a 81b2
00000050: 1f8e 0136 db29 a134 9956 0cba 1971 1980
00000060: d7a5 abb8 32ce 8c35 9b12 1800 dea3 00b4
00000070: a2fe e82b 8833 41b7 154d 1d36 054d 1d00
00000080: e2ab b9b7 ac0e 0e80 fc14 0a33 0481 c9b5
00000090: cf95 8534 c62d aa9f 090b bdb6 6d99 b0b4
000000a0: 7a1b 40b5 5e81 7934 e9e9 023b 2ec7 0600
000000b0: 21b8 89b5 8dca f938 7c8e 90b6 b126 4b34
000000c0: 27b5 42b6 90c6 0fb5 fad9 8db6 785d 94bc
000000d0: 785f 01b6 4a46 f334 ba6b ef34 ef40 0427
000000e0: e6ab 6736 791e 1bb7 545e 6635 e135 0e33
000000f0: be57 93b3 f474 6b32 c0a2 08b3 71d6 98b2
00000100: 6ca5 beb2 4083 afb7 446f f9b9 b18f 96b6
00000110: e0d4 9f37 cccb 87b7 40d1 41b4 f6f9 8d35
00000120: 4029 47bb 46d9 582e b1de 5735 e7eb e4bb
00000130: 4d32 8c34 8b5c 6db8 4229 7797 77a8 fe28
00000140: 6c79 90b5 ad63 e7b7 6446 e4bb 6804 a1b4
00000150: 894d ccb6 e9c5 1335 2423 e1b9 309f 1e80
00000160: dd12 f1b9 22d9 2bb7 9786 1400 5ae6 86b4
00000170: 28c6 49ac ce2c a2b8 dca1 a635 1d63 1600
00000180: 2724 c337 7f99 0d00 9dec f7b5 f891 e5b6
00000190: 9ddf 2935 51bd 029d 54d8 75b8 9715 0bb6
000001a0: d8d7 d7b6 edc0 f2b4 7315 40bb d36c 1180
000001b0: 87df f1b6 dda0 9736 eb4a ceb8 784f a834
000001c0: 64d8 c1b7 4141 6cb6 ae07 003b 6a19 1ebc
000001d0: c7dd a4b8 e91c 2637 4523 b435 7193 3d27
000001e0: 9230 88b7 87f4 04b8 6c85 5b35 1d10 0936
000001f0: 1918 82b5 ce6b 4534 3f63 f832 dbc5 5bb3
00000200: 4710 a333 792b f4b5 9723 a5b9 3a86 c2b6
00000210: 3cfb 1c3a 16f2 c735 965e b6b4 21a9 d034
00000220: 47a8 58bc 9cdd 7bb0 1745 1437 9adc 93bc
00000230: 5458 9934 01bb efb8 7f64 ff97 f51b cb29
00000240: 02b4 1637 f51e d9b6 6070 99bc fe2b 12b4
00000250: 6ef8 7db7 90b2 0b36 0bb4 5539 3782 0a00
00000260: 0320 35ba 26d0 4836 288f 1100 9b94 f536
00000270: a56a 28ac d488 2bb9 c5bb d9b3 1dac 1c80
00000280: 88c0 20b7 16b3 0a00 eab9 eab5 cddd 0db8
00000290: dbda 2436 734f 719e 7c81 ecb8 b74f 03b6
000002a0: 6d59 5e36 3f8e a7b6 87aa 38bc 5ff0 0480
000002b0: 2a24 3db7 7de6 b938 b599 fcb8 3157 f936
000002c0: 9674 e0b7 c22a a1b5 73ab 4db9 82e6 a1bc
000002d0: 37e9 84b8 4c73 2eb5 fd3f 16b7 9372 c7a7
000002e0: 2204 e5b6 9ad9 85b7 596e 0437 14a6 0b36
000002f0: 560e 0ab5 1d04 8434 b465 b134 5fdd 15b4
00000300: f4ee 1732 879b 65b3 0ddc 013a 4528 a5b6
00000310: f1aa a639 47b5 e635 1ae4 77b4 7565 f535
00000320: a5f9 3cbc 3c12 04b0 92e5 3537 ef9c 77bc
00000330: 3e85 8c34 d46e f0b8 0879 1118 149c 1aaa
00000340: ab96 f436 4f15 17b7 4451 83bc d744 a5b4
00000350: ed80 f3b6 c86c 9634 d745 0438 b025 1900
00000360: 3397 2d39 27f3 1f37 2aea 1900 9a11 ec36
00000370: 11ff 8aad e7e6 23b9 6e1e 3cb6 1846 1980
00000380: cd67 39b5 ab90 1b00 db07 22b6 7941 a2b7
00000390: 85f3 2736 a3f1 6c9d 0c44 d9b8 240e 01b6
000003a0: cf68 7d36 97e3 82b6 e3d7 26bc 182e 1280
000003b0: 448a 30b7 69bc a538 cfec d3b8 9092 0037
000003c0: 9ce5 a1b7 e774 17b5 ecd6 2239 2e00 86bc
000003d0: 08bb 5cb8 db2c 5636 d4ef 0736 e3ee f326
000003e0: 7d19 cab6 e828 2b38 4525 0437 68f3 3936
000003f0: e23a 00b4 6512 8734 2e05 5634 8748 64b4

gnn.gru.weight_hh_l0 f4 [192, 64]
-0.0042598504 0.0007069561 0.00050872355 -0.00017875296 0.000867833 0.00036154315 -0.0004642252 0.0011573284
0.00015544484 -0.0005239628 -4.3250857e-05 0.0004191732 0.000766867 0.00031466692 0.00042350104 -0.0026099388
-0.00027320327 -1.6880018e-05 -0.00041471937 0.00024799447 -0.0530045 0.00018775895 0.00050513254 -0.0006284579
0.00030587634 -0.0005807863 -0.00044292278 -0.0004747059 0.00032198682 7.205081e-05 -0.00050809555 -0.00024042255
-0.00048142605 -0.000495728 -0.0005136755 -0.0004959792 -0.00051040447 0.0010927548 0.0008179974 0.0011682514
0.00058685016 -0.00033314666 0.0010094714 3.3947251e-06 0.0012039869 0.0012435436 -0.0006707866 -0.006160399
0.0006763994 0.0009475827 0.0010196305 -0.0005400725 -0.00040547227 0.001980297 0.0026849217 0.0010285027
0.00030693554 0.0006034638 0.0003108768 0.00036882126 0.0004114839 0.00073892524 -0.00012400845 -0.00018111462
-0.0018155057 -0.0017471848 2.7390612e-05 0.00011518175 -0.0010194889 0.00026149183 0.00012947014 2.1931969e-07
-0.00011200047 -6.976157e-05 4.8852326e-05 0.00018652817 -0.0010122041 -0.0014599952 -0.00093674107 0.0010745621
0.0004040305 -0.00083066203 -0.00025879536 0.00045878234 -0.016987735 0.00032308613 0.0006871241 -0.0010689258
-0.001582499 -0.0012689306 -0.000146487 -0.0014945924 -6.457271e-05 -0.0018507645 4.1239604e-05 3.7373313e-05
-0.00016035285 -0.00016599802 -0.000115641364 0.0011893162 4.01382e-05 -0.00057212857 -0.0003952181 -0.0006955536
-0.00078631926 -0.0018415041 -0.0005253156 -7.412351e-05 -0.0007717701 -0.0010970293 -0.0016881891 0.000121083816
0.00067632884 -0.00057690876 -0.00010754447 -0.0001431259 -0.00012235143 -5.925119e-05 -0.0017006808 -0.0006888766
-0.0014962628 -0.0016966381 -0.0008393428 -0.0011571161 -0.0015994556 0.000116231364 -3.7245198e-05 -4.1742634e-05
-0.0047296854 -0.003732423 -0.0018077537 0.0021616896 -0.0042796633 0.0012101345 0.0022065877 -0.0035601293
0.0013592654 0.0016860525 0.00081220345 0.0020962239 -0.003999143 -0.0037835783 -0.002082392 -0.005454926
0.0019592862 -0.003297279 -0.0012470233 0.00077718956 -0.006156833 0.00069937034 0.0013522627 -0.0036390435
-0.0038886876 -0.0038663931 0.00090429536 -0.0031156847 0.0009907226 -0.003583639 0.001999952 0.0018540845
0.0010238735 0.0010291124 0.0014872458 -0.0047638817 0.002001077 -0.0039881244 -0.0038149985 -0.004029069
-0.0039332886 -0.0035974372 -0.0038584338 0.0008984231 -0.0041752863 -0.00403607 -0.0033337425 -0.003340206
0.0019404943 -0.003910992 -0.004157818 0.0013476146 0.00080774 -0.0035630655 -0.004609574 -0.0038490149
-0.0036538118 -0.0035221644 -0.0019176328 -0.0035358453 -0.003785495 0.0021388663 0.00070629147 0.0008087563
-0.004406967 -0.0034214421 -0.001034562 0.0013386069 -0.004110116 0.00072566816 0.0013794368 -0.0033255843
0.00068755983 0.00093605585 0.00037661393 0.001277352 -0.003802285 -0.0034589407 -0.0015020903 -0.005110653
0.0011852569 -0.0024922278 -0.00061092357 0.00039552854 -0.0065362966 0.00036397204 0.00070119643 -0.0028092107
-0.0036624705 -0.0030537623 0.00040632518 -0.00236403 0.00044999467 -0.003021853 0.0011952276 0.0014892074
0.00046498535 0.00046567683 0.00078160677 -0.0044228937 0.0011962891 -0.0037214304 -0.0033868467 -0.0038559993
-0.0037393603 -0.0030338482 -0.003636354 0.00040448958 -0.0039204145 -0.0038658015 -0.0027763646 -0.0025085327
0.0011883533 -0.0036563661 -0.0038295577 0.00067830604 0.0003681805 -0.0028779015 -0.004157088 -0.0036462261
-0.0033095272 -0.0029021266 -0.0013712696 -0.003027065 -0.0035580578 0.0014759592 0.0004075857 0.00043284
00000000: 3796 8bbb 0553 393a dc5b 053a a26f 3bb9
00000010: 497f 633a 808d bd39 4063 f3b9 7fb1 973a
00000020: e8fe 2239 8c5a 09ba 4168 35b8 79c4 db39
00000030: 9307 493a e1f9 a439 5909 de39 820b 2bbb
00000040: b93c 8fb9 9099 8db7 b16e d9b9 4105 8239
00000050: 3f1b 59bd 29e1 4439 df6a 043a 19bf 24ba
00000060: 075e a039 e93f 18ba 1738 e8b9 f3e1 f8b9
00000070: 57d0 a839 fc19 9738 b731 05ba f019 7cb9
00000080: e967 fcb9 bef3 01ba 2ea8 06ba 9a04 02ba
00000090: aacc 05ba c43a 8f3a e06e 563a 0320 993a
000000a0: d9d6 193a 30aa aeb9 3d50 843a efd0 6336
000000b0: 19cf 9d3a 66fe a23a bad7 2fba 2cdd c9bb
000000c0: 6550 313a 3367 783a 1fa5 853a a793 0dba
000000d0: 9195 d4b9 dfc7 013b 83f5 2f3b d3ce 863a
000000e0: 31ec a039 c531 1e3a 2efd a239 5a5e c139
000000f0: 6fbc d739 6fb4 413a 4408 02b9 96e9 3db9
00000100: 43f6 edba cb01 e5ba e4c4 e537 bb8d f138
00000110: 5fa0 85ba d718 8939 60c2 0739 237e 6b34
00000120: cbe1 eab8 f54c 92b8 c9e6 4c38 c696 4339
00000130: efab 84ba 4f5d bfba a18f 75ba 52d8 8c3a
00000140: 0ed4 d339 c9c0 59ba edae 87b9 b988 f039
00000150: dd29 8bbc e363 a939 1e20 343a 331b 8cba
00000160: db6b cfba 3f52 a6ba 4e9a 19b9 33e6 c3ba
00000170: 366b 87b8 5a95 f2ba b0f8 2c38 4ac1 1c38
00000180: 6424 28b9 c10f 2eb9 7c84 f2b8 d4e2 9b3a
00000190: 105a 2838 e6fa 15ba 4735 cfb9 d055 36ba
000001a0: fe20 4eba a05e f1ba 55b5 09ba c272 9bb8
000001b0: 9d50 4aba 32ca 8fba 3a46 ddba 61ee fd38
000001c0: a94b 313a b13b 17ba 7f89 e1b8 1114 16b9
000001d0: 764b 00b9 7b84 78b8 61e9 deba ba95 34ba
000001e0: 401e c4ba ba61 deba 5807 5cba 60aa 97ba
000001f0: d3a4 d1ba 3dc1 f338 ba37 1cb8 d014 2fb8
00000200: 7afb 9abb ab9b 74bb 26f2 ecba 22ab 0d3b
00000210: 6b3c 8cbb 609d 9e3a 669c 103b 0f51 69bb
00000220: 6129 b23a 89fe dc3a 0dea 543a cd60 093b
00000230: 3e0b 83bb e9f5 77bb be78 08bb 3cbf b2bb
00000240: 5e67 003b 2917 58bb 2973 a3ba 4fbc 4b3a
00000250: 42bf c9bb f355 373a 683e b13a 057d 6ebb
00000260: 5ad9 7ebb 5063 7dbb 3c0e 6d3a 8430 4cbb
00000270: 22db 813a 7cdb 6abb a011 033b c104 f33a
00000280: 7e33 863a 48e3 863a b0ef c23a 561a 9cbb
00000290: 8024 033b d0ae 82bb 0e05 7abb 4806 84bb
000002a0: d1e2 80bb fbc2 6bbb c7dd 7cbb 2784 6b3a
000002b0: d7d0 88bb 0241 84bb eb7a 5abb 5ce7 5abb
000002c0: 2f58 fe3a c727 80bb 4e3e 88bb 71a2 b03a
000002d0: 84be 533a 5282 69bb e90b 97bb c13f 7cbb
000002e0: ca74 6fbb 1dd4 66bb 1459 fbba a4b9 67bb
000002f0: 1116 78bb 392c 0c3b 6b26 393a b702 543a
00000300: 5268 90bb 463a 60bb 249a 87ba 3274 af3a
00000310: 27ae 86bb c43a 3e3a 38ce b43a 0cf2 59bb
00000320: 5c3d 343a a561 753a 4474 c539 d26c a73a
00000330: c22f 79bb 65af 62bb c9e1 c4ba 4477 a7bb
00000340: 9f5a 9b3a a554 23bb 6326 20ba f15e cf39
00000350: 6e2e d6bb 80d3 be39 7fd0 373a bc1a 38bb
00000360: 0f06 70bb a121 48bb 0b08 d539 d8ed 1abb
00000370: 43ed eb39 480a 46bb 2fa9 9c3a 8231 c33a
00000380: 47c9 f339 1626 f439 bee4 4c3a eced 90bb
00000390: cdcc 9c3a 3ee3 73bb dcf5 5dbb efb4 7cbb
000003a0: 0e10 75bb 87d3 46bb e64f 6ebb ac11 d439
000003b0: d276 80bb 6359 7dbb abf3 35bb 3266 24bb
000003c0: 85c2 9b3a a59f 6fbb 51f9 7abb 59d0 313a
000003d0: 5a08 c139 2d9b 3cbb 2f38 88bb 86f5 6ebb
000003e0: a7e4 58bb 9b31 3ebb 2cbc b3ba b961 46bb
000003f0: 4e2e 69bb f974 c13a 3ab1 d539 cdee e239

gnn.gru.bias_ih_l0 f4 [192]
-0.019166749 -0.0053020315 -0.003078836 -0.002393844 -0.0075920024 -0.0070975902 -0.0025303708 -0.006009094
-0.0048287706 -0.0035527747 -0.0028689879 -0.0028438724 -0.006875475 -0.006452595 -0.006000585 -0.016251398
-0.0064068194 0.00071535056 -0.005981806 -0.0016420095 0.044141967 0.0005260988 -0.006951898 0.003698841
-0.0070632654 0.003265445 -0.004895835 -0.003706095 -0.0055193217 -0.007231683 -0.0025727695 -0.0052668224
-0.0053711045 -0.005191006 -0.0043730275 -0.010915742 -0.0027244163 -0.006714481 -0.015489493 -0.007782209
-0.0073389304 -0.0053063775 -0.007667691 -0.0048947427 -0.009171488 -0.009870338 -0.004592887 0.036269758
-0.00420908 -0.006532973 -0.007581287 -0.0045058266 -0.0034857793 -0.0036184543 -0.005760386 -0.007147192
-0.0063090515 -0.0044018053 -0.006893807 -0.0050574294 -0.0069773924 -0.0050107166 -0.00030914598 -0.004372945
-0.0023187445 -0.003945176 0.0006881273 -0.0019651314 -0.00839792 0.008199525 -0.0023066802 -0.009665859
0.0042438684 0.0017117349 0.012907839 -0.0012648063 -0.0065896516 -0.0105768945 0.005664674 -0.012390537
0.00026160444 -0.007815821 0.005797692 0.014706717 -0.90170765 0.016244184 0.0050838105 -0.007882896
-0.009567306 -0.00849044 0.010326349 -0.008424831 0.008703347 -0.008465976 -0.0007689159 -0.00016164056
0.008120427 0.007998217 0.0033057628 -0.013154129 -0.0007789401 -0.0072784293 0.009238168 -0.0048833513
-0.009448348 -0.007960109 -0.007626526 0.010548186 -0.0072514038 -0.0047516725 -0.006927419 -0.012959621
0.00020956143 -0.007353887 -0.010036541 0.0044465037 0.012368836 -0.010440284 -0.010242255 -0.0053543705
-0.008883674 -0.0058724033 0.008466944 -0.008333038 -0.0113753555 -0.00039345407 0.014814828 0.010046792
0.03311744 0.02115846 -0.009865982 0.0051847277 0.03671006 0.03165184 0.0043205093 0.028211465
0.018317653 0.011735145 0.046815217 0.0064357915 0.03275977 0.032865968 0.038758293 0.018807683
0.006288017 0.044129733 -0.022802865 0.05312646 -0.13343008 0.06616046 0.020375594 0.058614403
0.035369564 0.06975748 0.0391099 0.009869512 0.032898966 0.011314914 0.0075022145 0.0051995493
0.030505303 0.029863143 0.015925677 0.009437867 0.007241192 0.027241612 0.015181544 0.033148948
0.037830103 0.024620954 0.033916745 0.038967762 0.020033814 0.028514702 0.019661795 0.16252649
0.00813196 0.031287417 0.038780235 0.019088557 0.046242286 0.013400358 0.03165403 0.032336485
0.030239243 0.009805277 0.026438653 0.024284545 0.036848955 0.006609389 0.062015407 0.034298416
00000000: 9603 9dbc aabc adbb 4cc6 49bb 0ae2 1cbb
00000010: 55c6 f8bb e792 e8bb 94d4 25bb efe7 c4bb
00000020: aa3a 9ebb abd5 68bb a105 3cbb 4360 3abb
00000030: aa4b e1bb 4a70 d3bb 8ea0 c4bb a721 85bc
00000040: 4cf0 d1bb 5d86 3b3a 0703 c4bb b238 d7ba
00000050: 35ce 343d e5e9 093a bfcc e3bb 4168 723b
00000060: f772 e7bb 1301 563b 3e6d a0bb f5e1 72bb
00000070: 6ddb b4bb c1f7 ecbb e99b 28bb 4f95 acbb
00000080: 1700 b0bb 5119 aabb 9d4b 8fbb f1d7 32bc
00000090: 1f8c 32bb 2605 dcbb a4c7 7dbc e701 ffbb
000000a0: 697b f0bb 1fe1 adbb 4141 fbbb 1464 a0bb
000000b0: 0244 16bc 33b7 21bc ee7f 96bb 998f 143d
000000c0: 52ec 89bb 8d12 d6bb 726c f8bb 9da5 93bb
000000d0: ac71 64bb 9723 6dbb 9fc1 bcbb fe32 eabb
000000e0: 29bc cebb 053d 90bb 72e5 e1bb cbb8 a5bb
000000f0: 9ca2 e4bb f030 a4bb df14 a2b9 ec4a 8fbb
00000100: 14f6 17bb 8946 81bb 7163 343a 6fc9 00bb
00000110: 6e97 09bc 4d57 063c ac2b 17bb 8d5d 1ebc
00000120: 2610 8b3b 4b5c e03a 677b 533c dbc7 a5ba
00000130: 01ee d7bb b64a 2dbc bb9e b93b ae01 4bbc
00000140: f427 8939 ee0d 00bc 91fa bd3b 71f4 703c
00000150: 50d6 66bf 8612 853c 1896 a63b 4327 01bc
00000160: 31c0 1cbc 7d1b 0bbc d92f 293c 4d08 0abc
00000170: 7c98 0e3c e1b4 0abc 1391 49ba 0f7e 29b9
00000180: 8a0b 053c f40a 033c 7fa5 583b 6a84 57bc
00000190: c931 4cba e47f eebb af5b 173c 8504 a0bb
000001a0: 3ecd 1abc 1e6b 02bc f0e7 f9bb 4cd2 2c3c
000001b0: 2f9d edbb ebb3 9bbb 67ff e2bb 9754 54bc
000001c0: b8bd 5b39 e0f8 f0bb 4e70 24bc fab3 913b
000001d0: a9a6 4a3c ba0d 2bbc 22cf 27bc b773 afbb
000001e0: d48c 11bc 4a6d c0bb f0b8 0a3c 4b87 08bc
000001f0: b35f 3abc 8348 ceb9 e4b9 723c 4d9b 243c
00000200: 27a6 073d 8254 ad3c eea4 21bc a6e4 a93b
00000210: 4a5d 163d 5ca5 013d 0f93 8d3b bb1b e73c
00000220: e70e 963c c444 403c 50c1 3f3d 55e3 d23b
00000230: 1c2f 063d 779e 063d 04c1 1e3d 9212 9a3c
00000240: b60b ce3b 61c1 343d 13cd babc 229b 593d
00000250: e5a1 08be 237f 873d b8ea a63c a815 703d
00000260: addf 103d 02dd 8e3d b431 203d bcb3 213c
00000270: 11c1 063d 3062 393c 23d5 f53b fb60 aa3b
00000280: 42e6 f93c 8da3 f43c 9176 823c 49a1 1a3c
00000290: 8547 ed3b cd29 df3c 03bc 783c 31c7 073d
000002a0: bdf3 1a3d e2b1 c93c 49ec 0a3d a99c 1f3d
000002b0: f41d a43c aa97 e93c c611 a13c 586d 263e
000002c0: ea3b 053c 3c27 003d 06d8 1e3d 9b5f 9c3c
000002d0: 8d68 3d3d 2d8d 5b3c a8a7 013d 4373 043d
000002e0: 4ab8 f73c 50a6 203c e095 d83c 62f0 c63c
000002f0: eeee 163d 9393 d83b de03 7e3d 7f7c 0c3d
